tests/predictors/diabetes__pytorch.pt (torch, 6374 bytes, 4 tensors)

weight f4 [20, 10]
0	0x3e9316f3	0.28728446
1	0x3d344470	0.04401058
2	0x3d96ed94	0.07369533
3	0xbd9e31f2	-0.0772437
4	0xbe972c62	-0.2952605
5	0x3dbf56bc	0.09342715
6	0x3e3f14aa	0.18660226
7	0x3e0e3da8	0.13890707
8	0xbdfe4966	-0.124163434
9	0x3e7d2f4e	0.24725077
10	0x4231ea64	44.478897
11	0x42f43ad9	122.11494
12	0xc3c247d6	-388.56122
13	0xc3c99097	-403.1296
14	0xc3922854	-292.31506
15	0xc3e7ad12	-463.3521
16	0x43c5c869	395.5657
17	0xc3c7412a	-398.5091
18	0xc35beeda	-219.93301
19	0xc3f742cd	-494.52188
20	0x423ed72c	47.71013
21	0x43025a66	130.35312
22	0xc3cec0b6	-413.50555
23	0xc3d6b268	-429.3938
24	0xc39ba480	-311.28516
25	0xc3f6cf9f	-493.62204
26	0x43d2cceb	421.60092
27	0xc3d43078	-424.37866
28	0xc36a81c0	-234.50684
29	0xc403aaea	-526.67053
30	0xbe333656	-0.17501196
31	0xbd51079b	-0.051032644
32	0x3e925cf5	0.28586546
33	0xbe9d0c98	-0.3067367
34	0xbe27ddfe	-0.16393277
35	0x3e6226b0	0.2208507
36	0x3df10f15	0.11770455
37	0x3ceb2ddb	0.028708389
38	0x3cdb5139	0.026772128
39	0xbdd6fb92	-0.10497202
40	0xbe9d21a4	-0.30689728
41	0x3e2d5c6d	0.16929789
42	0x3e9f9dc9	0.31175068
43	0xbea28fc4	-0.3175031
44	0x3e9bf350	0.3045907
45	0x3da9ccf1	0.082910426
46	0x3e95affe	0.29235834
47	0xbe8c4168	-0.2739365
48	0xbe40312a	-0.18768755
49	0x3e8471ab	0.25867972
50	0xbe1eda56	-0.15512976
51	0xbd6f64c0	-0.058445692
52	0x3e9c9917	0.30585548
53	0xbc5f2360	-0.013619274
54	0xbe94d858	-0.29071307
55	0xbe92bfa3	-0.28661832
56	0x3e1b1744	0.15145594
57	0x3d88f500	0.06687355
58	0x3e576fae	0.21038696
59	0xbdbdabb0	-0.092612624
60	0x3c9ed4c0	0.019388556
61	0xbe87fa0e	-0.26557964
62	0xbe7348ac	-0.23758191
63	0x3d302830	0.043007076
64	0xbd9dbee6	-0.077024266
65	0x3e96a741	0.2942448
66	0x3e1d77ce	0.15377733
67	0x3e5f5b1a	0.21812096
68	0xbe2822bb	-0.16419499
69	0xbd132200	-0.035921097
70	0x3dc601f8	0.09668344
71	0x3ea07ed5	0.31346765
72	0x3df0ce28	0.11758071
73	0x3e895803	0.2682496
74	0xbd812cc4	-0.063073665
75	0x3e08d02a	0.13360658
76	0x3d5b7938	0.0535824
77	0x3e886917	0.26642677
78	0xbe761166	-0.24030074
79	0x3e87d01d	0.26525965
80	0x3e687f86	0.22704896
81	0x3d95b794	0.073104054
82	0xbd03c950	-0.03217441
83	0xbe81c7b9	-0.2534769
84	0x3d19f8a8	0.037590653
85	0xbd25d9a8	-0.040490776
86	0x3e6deec6	0.23235616
87	0x3d2016e8	0.039084345
88	0x3e0467bc	0.12930197
89	0x3d17e958	0.03708777
90	0x418393a1	16.447084
91	0x4236ccf5	45.700153
92	0xc310f2ae	-144.94797
93	0xc3164c81	-150.29884
94	0xc2d9c1b4	-108.87833
95	0xc32cf159	-172.94276
96	0x43138d7c	147.55267
97	0xc3145202	-148.32034
98	0xc2a4a956	-82.330734
99	0xc338851b	-184.51994
100	0x428bbdc5	69.87064
101	0x433f0231	191.00856
102	0xc417f02d	-607.75275
103	0xc41da018	-630.50146
104	0xc3e47066	-456.8781
105	0xc4354b3e	-725.17566
106	0x441ae9dd	619.6541
107	0xc41bc38e	-623.05554
108	0xc3ac52bd	-344.6464
109	0xc441865f	-774.09955
110	0xbd9605a4	-0.073252946
111	0xbc38c620	-0.011277705
112	0x3e60e3ee	0.21961948
113	0x3e1ae6ee	0.15127155
114	0xbc41a520	-0.011819154
115	0x3e9ed111	0.3101888
116	0xbd6e37b0	-0.058158576
117	0xbe96cb63	-0.29452047
118	0x3e64067a	0.22268096
119	0xbe5e1c85	-0.21690567
120	0x3e6c611e	0.23083922
121	0x3c12d800	0.008962631
122	0x3d4ea940	0.050454378
123	0x3e40321e	0.18769118
124	0xbd0e24d0	-0.034703076
125	0x3e8f9b11	0.28047994
126	0x3e40a346	0.18812284
127	0x3e4152c2	0.18879226
128	0xbcf415b0	-0.029795498
129	0x3e826381	0.2546654
130	0x41ed18e6	29.637157
131	0x42a1d1b3	80.90957
132	0xc3800bc0	-256.0918
133	0xc384f5c4	-265.92004
134	0xc340f818	-192.96912
135	0xc398bf40	-305.49414
136	0x43828542	261.04108
137	0xc3838ad8	-263.08472
138	0xc31112dc	-145.07367
139	0xc3a324c4	-326.28723
140	0x3d320848	0.04346493
141	0xbe87864e	-0.26469654
142	0xbe0732e4	-0.13203007
143	0x3e9d5919	0.3073204
144	0x3e90d469	0.28287056
145	0x3db6a794	0.08918682
146	0xbdae8036	-0.08520548
147	0xbe8a3a5f	-0.2699766
148	0x3db31cf4	0.08745757
149	0xbe445a8c	-0.19175166
150	0x3d9b33b8	0.07578224
151	0x3e44aab2	0.1920574
152	0xbe7c1fde	-0.24621531
153	0x3e0fa8d4	0.14029247
154	0x3d5c48c8	0.053780347
155	0x3d3f01b8	0.0466325
156	0xbe908952	-0.28229767
157	0x3d832980	0.064044
158	0x3e641f52	0.22277573
159	0xbc9cf750	-0.019160897
160	0xbdaa5b5e	-0.08318208
161	0xbe0195ad	-0.12654753
162	0xbea1193b	-0.31464562
163	0x3e670efa	0.22564307
164	0xbe93ec54	-0.28891242
165	0x3e4d7a66	0.20066223
166	0xbe1ba1dd	-0.15198465
167	0xbc219360	-0.009861797
168	0x3e9740c3	0.29541597
169	0x3e4679a2	0.19382337
170	0x4210b287	36.174343
171	0x42c7f60e	99.980576
172	0xc39f2d88	-318.3557
173	0xc3a50cf5	-330.10123
174	0xc36f6352	-239.38797
175	0xc3bd8f8c	-379.12146
176	0x43a23f96	324.49677
177	0xc3a32fdf	-326.374
178	0xc33425ae	-180.14719
179	0xc3ca8186	-405.0119
180	0x42673235	57.79903
181	0x431dfcb4	157.98712
182	0xc3fabb6e	-501.4643
183	0xc4021f87	-520.4926
184	0xc3bcb0ad	-377.38028
185	0xc41595de	-598.3417
186	0x43ffb5fb	511.42172
187	0xc4009ce2	-514.4513
188	0xc38e0c22	-284.0948
189	0xc41fa955	-638.6458
190	0x40665cb0	3.5994072
191	0x4125faab	10.373698
192	0xc2065405	-33.58205
193	0xc20b8521	-34.88001
194	0xc1c9f6df	-25.245543
195	0xc2209d19	-40.153416
196	0x420b5929	34.83707
197	0xc20a8d2b	-34.63786
198	0xc19a3b90	-19.279083
199	0xc22b6fbc	-42.859116

bias f4 [20]
0	0xbe95a872	-0.29230076
1	0xc7ab517a	-87714.95
2	0xc7b67bbf	-93431.49
3	0xbdfb51e7	-0.12271481
4	0xbde47209	-0.11154563
5	0xbdc27e42	-0.09496738
6	0xbdaf0ab4	-0.08546963
7	0xbe6c1862	-0.23056176
8	0xbe88dcba	-0.267309
9	0xc6ff8d9b	-32710.803
10	0xc80612c8	-137291.12
11	0xbe813f1e	-0.25243467
12	0xbe95e2a3	-0.29274473
13	0xc76236f2	-57910.945
14	0xbddfe5ec	-0.10932526
15	0xbda8321c	-0.082126826
16	0xbe48a1f6	-0.19593033
17	0xc78c564d	-71852.6
18	0xc7dd42fe	-113285.984
19	0xc5ef5ff7	-7659.9956

weight f4 [20, 20]
0	0x3e122036	0.142701
1	0xc70a8099	-35456.598
2	0xc7028fe9	-33423.91
3	0xbcd8ab0a	-0.026448745
4	0xbde0d0dd	-0.109773375
5	0xbd9b7ffe	-0.07592772
6	0x3e3f9814	0.18710357
7	0x3e451ca0	0.19249201
8	0x3e462498	0.19349897
9	0xc67deef6	-16251.74
10	0xc76a7fe4	-60031.89
11	0xbe07fd44	-0.13280207
12	0xbe5a18f2	-0.21298578
13	0xc6b956c4	-23723.383
14	0x3ded7ae4	0.11595705
15	0x3d90fb4c	0.07079181
16	0xbdd09049	-0.1018377
17	0xc6bbb235	-24025.104
18	0xc74d1bfe	-52507.992
19	0xc58398c3	-4211.095
20	0x3e17611c	0.14783138
21	0xc5c52208	-6308.254
22	0xc5b9d769	-5946.9263
23	0xbd9f4574	-0.07776919
24	0x3d290f40	0.04127431
25	0xbe4ef1c6	-0.20209417
26	0xbdd6b673	-0.10484018
27	0x3c56c0e0	0.013107508
28	0xbe1497eb	-0.14511077
29	0xc534b77e	-2891.4683
30	0xc626e266	-10680.6
31	0xbe548f05	-0.20757683
32	0x3d8925c4	0.06696656
33	0xc583e662	-4220.798
34	0x3d8185b4	0.0632433
35	0xbe260540	-0.1621294
36	0x3dfa7a64	0.122303754
37	0xc5859573	-4274.681
38	0xc611f8ff	-9342.249
39	0xc43b4846	-749.1293
40	0xbd827c3a	-0.063713506
41	0xbe0e569a	-0.13900223
42	0xbd2f8824	-0.042854443
43	0x3e239787	0.15975772
44	0xbd294b4a	-0.041331567
45	0x3d55d278	0.05220267
46	0x3da93c1c	0.08263418
47	0xbcfccc48	-0.030859128
48	0xbc211d40	-0.009833634
49	0xbdca007a	-0.09863372
50	0xbdac6256	-0.084171936
51	0xbdaa2152	-0.083071366
52	0xbcadfc58	-0.021238491
53	0xbe8d43d0	-0.275908
54	0xbe3eb98e	-0.18625471
55	0xbd87f780	-0.06639004
56	0x3e52d330	0.20588374
57	0xbd828ad6	-0.06374137
58	0xbed55557	-0.41666672
59	0xbd1abd4d	-0.037778188
60	0x3d81be00	0.06335068
61	0xbd05c05c	-0.03265415
62	0xbe0e3ab4	-0.13889581
63	0xba8c7a7c	-0.0010717656
64	0xbdae1a82	-0.0850115
65	0xbe633f7e	-0.22192189
66	0x3de3ce18	0.11123294
67	0x3e2bb732	0.16769102
68	0xbde37584	-0.11106399
69	0x3e05e37c	0.1307506
70	0xbe3b7424	-0.18306023
71	0xbdecae2d	-0.11556659
72	0x3daccebc	0.08437869
73	0xbc1b2d04	-0.009471182
74	0x3d96c44c	0.073616594
75	0xbdef08cf	-0.11671602
76	0xbe4e6752	-0.20156601
77	0xbe77fcc0	-0.2421751
78	0xbe04bce2	-0.12962678
79	0xbe1edb21	-0.15513279
80	0x3d8444d0	0.064584374
81	0xbdf767f1	-0.12080372
82	0xbe394640	-0.18093204
83	0x3d923b84	0.07140258
84	0xbd9eb982	-0.077502266
85	0xbe3069a6	-0.17227802
86	0x3e474a1e	0.19461867
87	0x3e3ec162	0.18628457
88	0xbd83b914	-0.06431785
89	0xbe06b0d0	-0.13153386
90	0xbd8c9856	-0.06864993
91	0xbe63e9b3	-0.22257118
92	0xbe36f338	-0.17866218
93	0x3d3d6e30	0.04624766
94	0x3da0b5c0	0.07847166
95	0x3e62177e	0.22079274
96	0xbda07716	-0.07835214
97	0xbd807372	-0.062720194
98	0xbe4b77d4	-0.1986993
99	0xbd0d7d74	-0.03454347
100	0x3d2ca188	0.042146236
101	0x3e34fd0f	0.17674659
102	0x3c30d3b5	0.010792662
103	0x3de67f29	0.112547226
104	0xbe1cfba8	-0.15330374
105	0x3df2b0ac	0.11850104
106	0x3e4acd7e	0.19804952
107	0xbe1277e6	-0.1430355
108	0xbd884fc8	-0.06655842
109	0xbe654000	-0.22387695
110	0xbd95f748	-0.07322556
111	0xbe3a1ffd	-0.18176265
112	0xbe1686d2	-0.14699867
113	0xbdd1679d	-0.10224841
114	0xbccdd2d0	-0.025124937
115	0xbe4bec01	-0.19914247
116	0x3daaf504	0.08347514
117	0xbbb796d8	-0.005602699
118	0xbd94aa79	-0.072590776
119	0xbd27aefb	-0.04093836
120	0x3c2ea140	0.010658562
121	0xc6827725	-16699.572
122	0xc675f970	-15742.359
123	0x3e2a57a0	0.16634989
124	0xbe17cae2	-0.14823487
125	0xbe4805ea	-0.19533506
126	0x3e47ca60	0.19510794
127	0x3e4b7da8	0.19872153
128	0xbda1df26	-0.0790389
129	0xc5ef33f3	-7654.4937
130	0xc6dce447	-28274.139
131	0xba77f000	-0.0009458065
132	0xbdecba52	-0.11558975
133	0xc62e9520	-11173.281
134	0x3e00dac8	0.12583458
135	0xbdae253e	-0.08503197
136	0xbe3c12aa	-0.18366495
137	0xc630cd97	-11315.397
138	0xc6c134d8	-24730.422
139	0xc4f7e2f7	-1983.0927
140	0xbda8513a	-0.08218618
141	0xbe552875	-0.20816214
142	0xbe2ce644	-0.16884714
143	0x3d8af444	0.06784871
144	0xbe2ebaa7	-0.1706339
145	0xbdac0f90	-0.08401406
146	0xbd7d9c20	-0.06191647
147	0x3d57a800	0.05265045
148	0x3e2db8b8	0.16964996
149	0xbd3d5000	-0.046218872
150	0xbdd7aaf3	-0.10530653
151	0x3e36c3cc	0.17848128
152	0x3e488154	0.19580585
153	0x3e58c7aa	0.21169916
154	0xbe349096	-0.1763328
155	0x3e58364c	0.21114463
156	0x3dd57e38	0.10424465
157	0x3e5758e2	0.2103
158	0x3d0e2850	0.034706414
159	0xbd934bea	-0.07192214
160	0x3dcf1b6c	0.10112652
161	0x3e18bd8e	0.1491606
162	0xbe77ab1e	-0.2418637
163	0x39882891	0.00025970166
164	0x3e521914	0.20517379
165	0xbc8b25d8	-0.016985819
166	0xbdc9464c	-0.09827861
167	0x3dee8ea4	0.116483
168	0x3df0079c	0.117202014
169	0x3da80407	0.08203893
170	0x3d8d4114	0.06897178
171	0xbe17d9c0	-0.14829159
172	0x3d969b00	0.07353783
173	0xbe586981	-0.21133997
174	0xbe33c50c	-0.17555636
175	0x3d046678	0.032324284
176	0xbe3bd8f6	-0.18344483
177	0xbd923d3f	-0.07140588
178	0xbe241027	-0.16021787
179	0x3e4518a2	0.19247678
180	0xbe4b4d23	-0.19853644
181	0xbe69417c	-0.22778887
182	0x3d4e58af	0.050377544
183	0xbdf868d2	-0.12129368
184	0x3d9ffbdd	0.07811711
185	0x3dac9fc0	0.084289074
186	0xbe336202	-0.17517856
187	0x3d079318	0.033099264
188	0x3e2803b8	0.16407669
189	0xbe429523	-0.19002204
190	0x3e13165c	0.14363998
191	0xbddfd7ac	-0.10929808
192	0xbc10e050	-0.008842543
193	0x3e0e7b16	0.13914141
194	0xbccedbd8	-0.025251314
195	0x3c1cbab0	0.009565994
196	0xbe13be8a	-0.14428154
197	0x3e137c3c	0.1440286
198	0xbe63de92	-0.22252873
199	0x3e12ad13	0.14323835
200	0xbdea3b12	-0.11437048
201	0xc6656ec4	-14683.691
202	0xc65848a4	-13842.16
203	0xbc829727	-0.015941216
204	0xbe2537a7	-0.16134511
205	0xbe1b5e48	-0.15172684
206	0xbe2408ae	-0.16018936
207	0x3dae2420	0.08502984
208	0x3db9629c	0.09052011
209	0xc5d252df	-6730.359
210	0xc6c23ad9	-24861.424
211	0x3c4cf080	0.012508512
212	0xbd69dc04	-0.05709459
213	0xc61982da	-9824.713
214	0x3da91bf0	0.08257282
215	0xbdab8120	-0.08374238
216	0xbe17e0be	-0.14831826
217	0xc61b75f7	-9949.491
218	0xc6a9e214	-21745.04
219	0xc4d9f8b3	-1743.7719
220	0xbe470442	-0.19435218
221	0x3db7d311	0.089758046
222	0xbc3c50b1	-0.011493848
223	0xbe17c951	-0.1482289
224	0x3e15116a	0.14557424
225	0xbe64e742	-0.22353843
226	0xbdb5c160	-0.08874774
227	0x3b665cc0	0.0035150498
228	0xbc51ac40	-0.012797415
229	0x3e50d94e	0.20395395
230	0xbe45295c	-0.19254059
231	0xbe0655ba	-0.1311864
232	0x3dcce400	0.10004425
233	0xbe4da7c3	-0.20083527
234	0xbc5019a0	-0.012701422
235	0xbe13f678	-0.14449489
236	0xbe0bab62	-0.13639596
237	0x3e35d91c	0.17758602
238	0x3d53f076	0.051742993
239	0x3df335e5	0.11875514
240	0x3b6d7540	0.0036233217
241	0xc60901fa	-8768.494
242	0xc601262e	-8265.545
243	0xbe457eaf	-0.19286607
244	0x3d707990	0.05870968
245	0x3ca012d8	0.019540235
246	0xbe2f15e4	-0.17098194
247	0xbd8bd94a	-0.06828554
248	0xbe024cb4	-0.12724572
249	0xc57b3216	-4019.1304
250	0xc667f5c2	-14845.439
251	0x3e2a36ca	0.16622463
252	0xbe22d2a6	-0.15900669
253	0xc5b753d9	-5866.481
254	0xbdda8ef6	-0.10671799
255	0x3cf937b0	0.030422062

weight f4 [1, 20]
0	0xc7cab720	-103790.25
1	0xc637c9b4	-11762.426
2	0x3d09d38a	0.033649005
3	0xbe034283	-0.12818341
4	0xbe1904f4	-0.14943296
5	0xbcbde909	-0.023182409
6	0xc70cb1fa	-36017.977
7	0xbde4b3ce	-0.111671075
8	0x3d18fc4f	0.037349995
9	0xbd9cded2	-0.07659687
10	0xc6e6e811	-29556.033
11	0x3dceedd9	0.101039596
12	0xc6add5f7	-22250.982
13	0x3d68eb33	0.05686493
14	0xc7d617ac	-109615.34
15	0xbda44260	-0.080204725
16	0xc7f5a954	-125778.66
17	0xc7ec109a	-120865.2
18	0xbd8b3c36	-0.06798594
19	0xbe09c149	-0.13452639
