tests/predictors/diabetes__pytorch.pt (torch, 5719 bytes, 5 tensors)

weight f4 [20, 10]
000000 d5 23 ea bf 22 3c 0b 3f 6a c7 63 3e 7d 41 c2 bd
       -1.8292185 0.5438863 0.22244039 -0.09485147
000010 f7 27 f7 3f c0 e4 19 c0 06 af 10 bf 9c 37 0c c0
       1.9309071 -2.4045868 -0.56517065 -2.1908941
000020 ac ed 4b bf 9f c2 ee bf d0 2f d7 3b 99 b9 4f 3f
       -0.79659534 -1.8653144 0.006566979 0.81142575
000030 7f 4c 95 3f 2b df 9a be d7 bc b6 bf 0a 56 a1 3e
       1.166397 -0.3024839 -1.4276379 0.31510955
000040 74 74 dd bd 16 78 16 bd a9 23 fa 3f 14 a6 0d 3f
       -0.10813227 -0.036735617 1.9542133 0.5533154
000050 90 29 d7 3d eb 58 2d c0 78 c8 52 c0 ac 95 41 bf
       0.10505974 -2.7085521 -3.2934856 -0.75619006
000060 4e 4a b2 bd fa 0e de bf a9 80 b8 be f4 80 f5 bf
       -0.08705579 -1.734832 -0.3603566 -1.9179978
000070 f5 73 61 3e 03 f3 34 c0 22 cb 01 40 5f ef 63 3f
       0.2201689 -2.8273323 2.0280232 0.89037126
000080 60 eb 43 bf 4e f6 8b bf 8c ab 85 bf 09 d9 b3 bf
       -0.7653103 -1.0934541 -1.0442977 -1.4050609
000090 d4 48 0d bf 9c 17 92 bd 0b 2f ba 3f 49 e5 cd 3f
       -0.5518925 -0.071334094 1.4545606 1.6085597
0000a0 23 81 74 3f ae 41 89 3f f1 68 f0 3f 8f 18 3d bf
       0.95509547 1.0723169 1.8782026 -0.738656
0000b0 1d fa 9d bf c5 af 25 3f 2e 12 0c 3f 1b b0 b2 3c
       -1.2341954 0.6472133 0.5471524 0.02181249
0000c0 56 c7 32 3f 35 b8 f1 bd 02 79 5e 3e 93 f3 f5 bf
       0.6983541 -0.11802713 0.21725848 -1.9214958
0000d0 a4 2b 17 c0 56 b6 1b bf 11 2b ec bf ce d9 01 3f
       -2.3620386 -0.608251 -1.8450643 0.5072297
0000e0 cc 40 e3 bc 0c 43 ec bf 33 66 6d 3f d0 7f 19 c0
       -0.027740858 -1.8457961 0.9273407 -2.398426
0000f0 10 fa bb 3f 28 55 33 bf 25 b5 8f 3f 9e a1 54 be
       1.4685688 -0.70051813 1.1227156 -0.20764777
000100 ba 73 1f bf a5 bf ed 3f 52 86 9a 3f b2 f1 21 3f
       -0.6228596 1.857411 1.2072241 0.6325942
000110 ae bb 1c 40 a2 f2 0e bf 0b d9 b0 bf 1b 44 cd bf
       2.448955 -0.5583898 -1.3816236 -1.6036409
000120 58 70 c2 3f 91 7e 1c 3e 51 98 2a be a3 1c 1c 40
       1.5190535 0.15282656 -0.16659667 2.4392478
000130 58 e7 19 c0 15 5b 82 bf f9 56 b9 3f 6b e9 86 bf
       -2.404745 -1.0184046 1.4479667 -1.0539984
000140 35 8a aa 3f 93 40 16 bf b9 b8 a6 3f ad c3 5f be
       1.3323427 -0.5869228 1.3025123 -0.21851988
000150 17 43 81 c0 e2 0e 5f 40 94 9a e7 3f a3 39 04 c0
       -4.0394397 3.4852834 1.8094049 -2.0660179
000160 37 4f f7 bc 02 5b 80 3c bb 71 f0 3e 2b 0b 13 40
       -0.03018914 0.015668396 0.4696177 2.2975566
000170 cc 11 26 3e 7c e0 9b 3f 16 de c3 3f d4 d6 24 be
       0.16217726 1.2177882 1.530215 -0.16097575
000180 63 77 29 3f cf ec 6e be 66 bf 0e c0 3f 62 3f 3f
       0.66197795 -0.23332523 -2.230432 0.74759287
000190 97 86 d0 3e ff 6b 23 40 70 32 04 bf e7 c0 02 3f
       0.40727684 2.5534666 -0.5163946 0.51075596
0001a0 20 45 19 3f 14 eb d5 bf ff f3 28 bf 7e f0 c3 bf
       0.598711 -1.6712365 -0.6599731 -1.5307767
0001b0 3d 74 06 bf 35 d0 2c c0 cc 5a e9 3f 37 9c 0e be
       -0.52521116 -2.700208 1.8230834 -0.13926779
0001c0 0a 53 1d be 9d c7 8d 3e 3d bb f1 3d b2 1a dd 3f
       -0.15363708 0.27691355 0.11803291 1.7273772
0001d0 62 d5 b9 3f 9d e1 ef bd e8 c1 8d 3f 84 8d 91 3f
       1.4518244 -0.11712954 1.10748 1.1371312
0001e0 f2 16 5c 3f 94 fc 3c bf cf 38 06 3f 0c ce 08 3f
       0.8597251 -0.73822904 0.52430433 0.534394
0001f0 f2 59 8f 3f d0 b6 3d 3f 1d 80 41 3f 11 cd 19 bf
       1.1199324 0.74107075 0.7558611 -0.6007853
000200 26 64 51 3f a8 4f 60 3f 54 70 a6 3d f8 06 8e bf
       0.8179344 0.87621546 0.08126894 -1.1095877
000210 ba c6 59 3f 66 03 a7 be 5a d2 41 bf 19 59 83 3f
       0.8506886 -0.3261978 -0.75711596 1.0261565
000220 75 eb 5a 3f 5a 45 8d 3f be f0 d4 bd 6f 06 dd be
       0.8551553 1.103679 -0.103974804 -0.4316897
000230 4d 83 ce be 44 58 39 40 f8 7a 23 3f 84 fb 6a bf
       -0.4033455 2.8960123 0.6385951 -0.9179003
000240 ec ea 98 bf 71 c3 10 3f 72 6f a4 be c0 c9 62 bf
       -1.1946692 0.5654822 -0.32116276 -0.88589096
000250 23 1e e0 3e 7c b8 a2 3f cf 32 9e 3f f7 fe 6f 3e
       0.43772992 1.271255 1.2359256 0.23437105
000260 54 e3 a4 be 25 32 34 3d f1 3c cb bf 1a 8c cb 3f
       -0.32204688 0.043993134 -1.5877973 1.5902131
000270 c8 1a b8 3e 96 28 ad 3e 63 2f 81 3f e0 2a 0d 3f
       0.35957932 0.33820027 1.0092586 0.5514355
000280 cc 65 b0 3e 14 9c 44 bf f2 d1 85 3f 59 e1 e0 3e
       0.34452665 -0.76800656 1.0454695 0.43921927
000290 dd 1a 36 bf 99 c4 07 40 c2 c2 40 bf a4 5f 2f 3e
       -0.7113474 2.1213744 -0.75297177 0.17126328
0002a0 65 00 21 3e be 4e d9 3d 27 29 21 40 60 62 a2 3f
       0.15722807 0.10610722 2.5181367 1.2686272
0002b0 3a 2d d0 3f 94 b9 08 3e 3c b9 b3 be b5 32 72 bf
       1.6263802 0.13352042 -0.3510226 -0.9460862
0002c0 3b c9 ab bf 10 b2 b1 be a3 67 82 be 90 0b 4f 3f
       -1.3420786 -0.34706163 -0.25469694 0.8087702
0002d0 67 61 7a be 5b 1b 1d c0 b1 90 a9 bf 0f fe d9 3e
       -0.24451219 -2.4547946 -1.3247281 0.42576644
0002e0 e0 7d 09 3f 6a 5b a3 bf 7b 73 32 bf ed 00 be be
       0.53707695 -1.2762272 -0.6970746 -0.3711008
0002f0 21 40 57 bf a7 b4 24 3e 9e a8 54 3f ce 10 41 3f
       -0.8408223 0.16084538 0.8306979 0.75416267
000300 ed db 0c bf 63 ad c0 be e7 a1 a0 bf e6 29 77 3f
       -0.5502308 -0.37632284 -1.2549409 0.96548307
000310 ed dc 2e 3f ed 69 62 bf cf 7a a2 3f 07 40 a9 3e
       0.68305856 -0.8844288 1.2693728 0.3305666

bias f4 [20]
000000 aa b8 37 3f 86 e5 40 3f 2c 3e b5 3f 38 f8 61 3f
       0.7176615 0.75350225 1.4159598 0.88269377
000010 a0 af c5 3f e1 da 47 3e b2 81 0d 40 8d 4e 9a be
       1.5444221 0.1951709 2.211041 -0.30138054
000020 26 b3 95 3f 13 98 ca be d6 20 49 40 f2 8d cb 3f
       1.1695297 -0.39569148 3.1426291 1.5902693
000030 49 42 ab 3f 17 ec 23 40 90 03 d5 3f 3d 54 a7 3f
       1.3379604 2.5612848 1.6641712 1.3072582
000040 0a da 23 40 8c fe 58 3f 93 00 96 bf 1e 61 a5 3f
       2.560183 0.8476341 -1.1718925 1.2920263

weight f4 [20, 20]
000000 38 f5 8f be a1 c2 18 3f e8 c8 f9 bf fb fa d8 bf
       -0.28116775 0.5967198 -1.9514437 -1.6951593
000010 0f c4 97 bf 87 1f 13 40 58 21 d0 3e 33 ae 92 3f
       -1.1856707 2.2987993 0.4065044 1.1459411
000020 ad e1 72 3e 85 7b a3 3f 3a 07 28 bf 30 51 5f c0
       0.23718901 1.277207 -0.65636027 -3.4893303
000030 8a 6d f8 3f 27 29 2c 3f 41 93 a1 3f 5e 72 33 40
       1.9408429 0.67250293 1.2623063 2.8038554
000040 5e a9 1e c0 0e 4e 76 3f 8c 25 04 40 db b6 a9 3f
       -2.4790874 0.9621285 2.0647917 1.3258928
000050 dc 3c e8 be 96 35 a2 3d 8d 1e 39 bf e1 8c 5e bf
       -0.45358932 0.07920377 -0.7231224 -0.86933714
000060 ae 35 ad bf 3f ac af 3f a5 90 b6 3e 6e 1e 15 40
       -1.3532007 1.372444 0.3565723 2.3299823
000070 41 7c de 3f 51 44 d8 be fb 58 52 3f 28 08 a5 bf
       1.7381669 -0.4223962 0.82167023 -1.2893114
000080 ae a0 f3 3f 6f 0a d9 bf 7b fa 2c 40 0a f5 16 3b
       1.903341 -1.6956309 2.702788 0.0023034238
000090 86 73 ad be 06 41 d9 be 08 cf b6 3f 3c 40 73 3f
       -0.338772 -0.4243242 1.4281931 0.9501989
0000a0 93 b8 d2 3f cb 6d 1d 40 56 a9 ca 3c 19 0d 04 be
       1.6462578 2.4598262 0.024738949 -0.12895621
0000b0 cb 76 30 bf 7a 60 64 bf de 73 76 bd b1 3a 52 3d
       -0.68931264 -0.8920971 -0.060169093 0.051325504
0000c0 a9 58 94 3e ab 27 35 3f 19 4c d1 be 25 e4 a4 bf
       0.28973892 0.70763654 -0.4087837 -1.2882124
0000d0 f4 ff 07 bd b5 cb 56 40 b6 b7 c2 3e 44 33 0d 40
       -0.03320308 3.3561833 0.38030785 2.206254
0000e0 51 86 d1 bf 21 ef 80 bf 8c c6 92 3e e0 27 1a 3f
       -1.6369115 -1.0072976 0.28667104 0.60217094
0000f0 db 8f fd 3e 12 12 d4 3f 5f b3 f7 bf 84 2d 3f bd
       0.49523816 1.6568015 -1.9351615 -0.046674266
000100 30 fc 14 c0 91 b3 1f 40 71 42 99 3f f9 e7 38 bf
       -2.3278923 2.4953349 1.1973401 -0.7222896
000110 3b 19 66 3f c4 87 cd 3f 95 5c 6c be f5 84 d2 bf
       0.8988225 1.6057057 -0.23082192 -1.6446825
000120 87 ba 45 3f f6 2d e1 3f 9a f2 49 3f b8 1c 0c 40
       0.77237743 1.7592151 0.78885806 2.1892529
000130 92 76 ed bf c0 36 29 bc e6 48 b0 3f e8 87 38 bf
       -1.855181 -0.010327995 1.3772247 -0.72082376
000140 06 ff 81 3f c0 3e d5 3f 6e 05 22 c0 83 64 04 c0
       1.0155952 1.6659775 -2.5315814 -2.0686347
000150 18 54 02 c0 e7 35 16 40 05 3f 70 bd 17 93 ac 3e
       -2.0363827 2.34704 -0.05865385 0.3370597
000160 e3 08 a0 bd 31 a1 46 bf 7e d1 7a bf 35 b1 f8 bd
       -0.07814195 -0.7758971 -0.9797591 -0.121431746
000170 1c 26 53 bf f0 3b 1f 40 32 43 89 3e 3a e8 11 40
       -0.82480025 2.4880333 0.26809078 2.279799
000180 26 6d e5 bf 60 93 ad 3f 84 68 40 40 eb b5 4a 40
       -1.7923934 1.35606 3.0063791 3.1673534
000190 5c dc df 3e e6 4c 2c 3f af 2e 0f c0 47 64 7a bf
       0.43722808 0.6730484 -2.2372243 -0.9780926
0001a0 8e f2 6d bf c9 f2 2e 40 8a 6c 21 3f 93 16 c2 3e
       -0.92948234 2.7335684 0.6305624 0.37907848
0001b0 c5 7d 17 3f f0 43 89 bf 74 12 ad 3c fa 3d 75 bf
       0.59176284 -1.0723858 0.021126963 -0.95797694
0001c0 f5 b2 9b 3f f6 1c 32 3f fd 86 b5 3f bc 50 26 40
       1.2163988 0.6957544 1.418182 2.5986776
0001d0 33 95 10 c0 6d 79 f7 3e 6b 22 a1 3f 67 c5 a1 bf
       -2.2591064 0.48334828 1.2588629 -1.2638367
0001e0 cf e5 b5 3f a6 b1 f0 3f c9 e4 c5 bf 97 ce 1d bf
       1.4210757 1.8804214 -1.5460445 -0.61643356
0001f0 15 44 df bf 14 bb cd 3f 08 83 07 3f 3e 3a 52 bf
       -1.7442652 1.6072717 0.5293431 -0.8212012
000200 92 d0 50 3f db e0 c9 3f 50 42 0f bf 9c 62 56 bf
       0.81568253 1.5771745 -0.5596056 -0.83744216
000210 0e de 93 bf 46 cf 12 40 91 95 69 be 95 20 19 40
       -1.1552141 2.293901 -0.22810961 2.3926136
000220 7a 10 96 bf 4f 6f 3c 3b eb a8 6f 3f b4 c3 42 3f
       -1.1723778 0.0028752869 0.93617123 0.7607987
000230 fe 22 19 40 ad 8a ef 3f 49 1c ef bf 02 bc 41 3c
       2.3927608 1.8714195 -1.8680507 0.01182461
000240 91 3c fd bf d9 12 b2 3f 71 51 f8 3e 6d d7 64 bf
       -1.9784108 1.3912002 0.48499635 -0.89391214
000250 e1 4d 90 3f 76 eb 91 3f 69 4b 56 bd d0 89 ec be
       1.1273767 1.1399982 -0.05231801 -0.46198893
000260 df 78 85 3e f0 d7 02 40 49 cb d3 3e c4 2d 75 3f
       0.2606878 2.0444298 0.41366032 0.9577296
000270 da 60 81 bf b6 1b 5f be 83 ad bb 3f c2 b5 27 bf
       -1.0107682 -0.21787915 1.4662327 -0.65511715
000280 bf 38 b7 bd e1 ad 95 3f d1 2c 35 c0 b5 54 d6 be
       -0.0894637 1.1693689 -2.8308604 -0.418615
000290 17 8f 07 c0 e8 52 2e 40 40 e2 6e be 32 c1 6d be
       -2.1181085 2.7238102 -0.23328495 -0.2321823
0002a0 43 d4 71 bf dd d0 36 bf 94 05 a4 3f 64 e2 77 bf
       -0.9446451 -0.7141245 1.2814202 -0.9682982
0002b0 78 eb 0f 40 1b 39 6b 3f 83 a4 cc be b8 b9 8d 3f
       2.2487469 0.9188401 -0.39969262 1.1072302
0002c0 67 38 f6 3e 1a 1a 22 3f af 22 4b 40 85 3b 27 bf
       0.48089907 0.6332108 3.173992 -0.65325195
0002d0 d4 ec 6c 3f 4a 2e 46 bf c8 00 cd bf 6e 76 82 bf
       0.9254887 -0.7741438 -1.6015863 -1.0192392
0002e0 a8 c5 cd bd 65 f3 a1 3f 44 be ac 3f 97 bb 82 3d
       -0.100474656 1.2652403 1.3495564 0.06383436
0002f0 80 90 33 40 55 5a 50 bd e9 ca 22 bf 48 03 11 c0
       2.8056946 -0.050867397 -0.63590866 -2.2658253
000300 53 53 02 3f 00 41 d9 be d3 d2 15 40 db b8 6c 3f
       0.5090839 -0.42432404 2.3409927 0.9246957
000310 44 fc f8 3e 38 75 05 bf 02 84 80 3f b4 7b 90 3f
       0.48629963 -0.52131987 1.0040286 1.1287751
000320 a2 64 2b 40 93 97 f6 3f a3 46 42 c0 9d 4c 1f c0
       2.6780171 1.9265007 -3.0355613 -2.489051
000330 64 f1 c2 bf d4 01 0d 3f e5 e0 18 bf e7 11 9e c0
       -1.5229917 0.55080914 -0.5971816 -4.9396853
000340 25 a4 cc 3f bc 20 ca 3f dd a3 cd 3f 5a d2 1c bf
       1.5987593 1.579124 1.6065632 -0.6125847
000350 6e bf 15 40 38 1d 3c 40 8d 43 02 3f f6 9b 9f bf
       2.339809 2.9392834 0.50884324 -1.246947
000360 4d 4d 7a c0 73 dc 04 c0 13 87 28 c0 c7 09 73 bf
       -3.910968 -2.0759552 -2.6332443 -0.94936794
000370 fa 5b 9d 3e be ad 69 be b2 a0 1d c0 12 9c c8 bf
       0.30734235 -0.22820184 -2.462933 -1.5672629
000380 3b 73 da 3e 8c 09 38 40 17 4a c9 3e 56 f3 88 3f
       0.4266604 2.8755827 0.3931434 1.069926
000390 a8 b9 77 bc 4e 3a 15 3e b7 a2 e5 bd 4a 18 ef bf
       -0.0151199475 0.14573023 -0.11212676 -1.8679287
0003a0 56 1b bc 3f c0 a4 73 bc 3d d3 45 3e 2b 5d 36 40
       1.4695842 -0.014870822 0.19318862 2.8494365
0003b0 b2 31 c1 bf a6 51 82 3f bb 4e 17 40 3f 45 4b 3f
       -1.5093291 1.0181167 2.3641803 0.79402536
0003c0 0f 62 46 bf e6 99 3f 3f 2c 5a 2d c0 0e 6a 23 3f
       -0.77493376 0.74844205 -2.7086287 0.638337
0003d0 65 1d 20 c0 72 78 de 3f 5c 34 f2 3e 73 2d 04 40
       -2.501794 1.7380507 0.47305572 2.065274
0003e0 ad f2 34 3f 39 ce 30 40 39 36 d2 be 0e dd 11 c0
       0.70682794 2.7625868 -0.41056994 -2.279117
0003f0 92 cf e8 3e 08 0c 8a 40 00 97 e5 3d 61 bd 9d be
       0.45470864 4.3139687 0.112104416 -0.30808547

bias f4 [20]
000000 d0 4a 0f 40 59 9b 97 c0 a8 23 33 c0 77 cd 31 c0
       2.2389412 -4.7377133 -2.7990513 -2.7781656
000010 62 56 23 c0 d2 15 65 bf dd d3 08 c0 8a 40 1e c0
       -2.5521474 -0.8948642 -2.137931 -2.4726892
000020 53 63 f7 be 42 62 29 c0 87 6f 0a 40 54 5e d2 bf
       -0.48317966 -2.6466222 2.163057 -1.6435037
000030 45 a5 51 c0 75 75 99 be 94 96 4f c0 d5 4e 5e c0
       -3.2757123 -0.29972425 -3.2435656 -3.4735615
000040 09 43 af 40 52 64 b0 3e 97 fd 53 c0 8b 88 32 be
       5.476933 0.34451538 -3.312353 -0.174349

weight f4 [1, 20]
000000 ee 2b 7a 41 60 8f d3 40 c6 f7 03 41 ad ad 0e 41
       15.635725 6.611252 8.247992 8.917401
000010 75 4b 86 41 a9 e3 00 41 93 5e 0c 41 71 a2 93 40
       16.786844 8.055581 8.773089 4.6135793
000020 f2 ff e3 40 2f 96 29 40 0e 47 f9 c0 f7 cc 40 41
       7.1249933 2.6497915 -7.7899237 12.05004
000030 c5 ac 1a 41 36 0f 11 c1 fb 8b b0 40 8a 9c 47 40
       9.66718 -9.066214 5.5170875 3.1189294
000040 84 84 6c c1 d2 51 24 c1 55 4f 00 41 ad fb 3f c1
       -14.782352 -10.269976 8.019368 -11.998944
