notebooks/adversarial/mnist_model.onnx (onnx, 171418 bytes, 6 tensors)

functional_3_1/sequential_1_1/dense_5_1/Cast/ReadVariableOp:0 f4 [50, 10]
00000000: b1e7 143f bfa9 9ebf 3ee5 ddbe 6f28 ebbe
00000010: f2b2 21bf c015 323e 7eca ddbd 0d74 90bf
00000020: 86ac 093f 25c6 083f 1708 9fbe 61bb 8cbe
00000030: 2e8c 313e ad26 143e 919d 8ebe 29c5 ab3b
00000040: dd5f 09be 02da 393e 3537 f63d 6bf7 9b3e
00000050: c981 4fbe 65b1 a1be f03b 653e 1a8d f33d
00000060: b0f8 9a3d 5017 ee3d e399 023c 8511 273e
00000070: 7d91 313d a112 0cbd ab12 4f3f df7d 9dbf
00000080: 57aa 653f fc9b 2ebe 1320 36bf 209a 0ebf
00000090: fc90 b73d 8eb0 b1be 6444 5d3f 616d 66bf
000000a0: 5330 353f 2c09 c1bf 62df 46bc 0d80 e03e
000000b0: f4ec 35bc 3573 83be 6d8d 18be fad7 92bf
000000c0: 989c c6be 6b0b 053e e928 f7be 5396 f23e
000000d0: 391c 5b3f 7e60 8b3e 3e89 b53e d5a4 9cbf
000000e0: 857a 9e3f a9ee 213f f9db b8bf d64f acbf
000000f0: c4f1 d03d db47 c7bd 1558 00be e4f6 7cbe
00000100: 2270 50bc 2e16 77be 119d 853e 673b 853e
00000110: d811 903e b7a8 6abe 4d40 8dbf b52a 5e3e
00000120: 6724 563e b31b 50bf 4f67 7abd 0d20 b4be
00000130: 16ab 243f a197 c5bf 1404 5e3f 5a4d 433f
00000140: c2cf 1cbe f898 b9bd 49bb 193e dfc5 30bd
00000150: 1eb3 96bc 4792 153e 99fe 13be 3bc0 083d
00000160: 1bda 863e 5714 f2bc 85b8 6e3f ecae a2bf
00000170: 2099 983e 48f1 61bc e34c d6bf b1d1 883d
00000180: 12a6 e9be a81d 18be 0c13 2f3c 373d 2dbe
00000190: a25a fabe 0f96 4abf b0fb 0e3f d2e1 05bf
000001a0: dfb5 053f 1dba b9bf 6e93 41bf d29c c63e
000001b0: ff67 dbbe 5005 043e 6d1e ac3e 6ae0 b43e
000001c0: 0f89 e53d 3cee e03b 3b43 f3bf f11c 273f
000001d0: 0f12 143f bdf6 4bbf daa2 4c3e 95aa b2bf
000001e0: 40d5 8d3e 146d 28bf 08d2 81bf 1b0c 003f
000001f0: 710f 563f 4006 333f baf2 74bd d1d0 b8bf
00000200: acf8 873e ac94 78be d9df 23bf 9657 1c3f
00000210: 890a 5e3f a32b cfbf 0de7 513f 747b 323e
00000220: 4d34 823f 178c 9ebd 6833 9b3e c466 d4bf
00000230: fab1 27bd 1b84 373e 5366 a5bd 7138 1d3e
00000240: 521e 813e 8d7f 7abd 4972 6c3e f0fe 573d
00000250: eca7 ca3c 53bc 623e eb80 b5bf 70c3 423f
00000260: 9ee8 583f 9196 413e fc29 9abe f820 90bf
00000270: f30d 32bf 4046 ae3f d13f b03e c2f3 10c0
00000280: 7a4d c7bf b6a6 223f d354 37bf cad6 493f
00000290: 438a ecbe 4200 603d f573 b4bf 72a4 bf3e
000002a0: c173 9e3e 227e 8f3e cf18 893e 2cd8 59be
000002b0: 5e93 653e 381c 8abe 4a91 3c3e 8076 1e3d
000002c0: 3c8b 5dbe 238c 8fbe fcb6 e53d 1012 37be
000002d0: 5839 8cbe 85df dfbd a451 663d 5a19 68be
000002e0: bdd9 85be 1c88 91be dce6 98be 0673 653e
000002f0: 406f 8f3e 9e61 a3bd cd3c b83e 88bf 04bd
00000300: a3ce d93e 9010 883e d944 98bf bfbd 6e3f
00000310: b452 27bf d5e6 cb3c b439 443f b574 efbf
00000320: db51 49bf 3493 3dbf 61b6 ffbe 2c32 afbf
00000330: 8196 3b3f 5632 29bf 381e a73e f523 ef3e
00000340: aff7 693f b035 bd3c 0ef8 01c0 7b8c ff3e
00000350: 3d6a 9cbf b1ee e8be 4c85 bc3e 8e25 d43e
00000360: f0a1 9bbf 0957 2fbe 9778 ecbc e6c4 543f
00000370: 61bf 8abf 4d23 dabd 2700 adbf 7727 bd3e
00000380: 00cc a73e 8b5d 97be 867c 29c0 6dfa 743f
00000390: c1d3 963e e7c7 3f3f 49f3 27be a2a5 ae3d
000003a0: 7e7f 4dbc cf27 923e 115f 9c3c 4f2b 773e
000003b0: 8348 b4bd c002 ae3d 7370 f33d bdbd c3bd
000003c0: 45a8 8f3e a5ee b7bf cad1 003f df6e 2dbf
000003d0: b1d6 e13e c6ac 2f3e a0fb 84bf 1ce3 b73f
000003e0: a325 b9bf 606d b23d f9e5 623e eb25 b63d
000003f0: 3924 81be 2017 9dbe 9f32 863d 8fda ba3d
0.58166033 -1.2395552 -0.4333896 -0.45929286 -0.63163674 0.1739111 -0.10829638 -1.1285416
0.53778875 0.53427345 -0.3106086 -0.2748671 0.1733863 0.14467879 -0.2785459 0.005242009
-0.13415475 0.1814957 0.12022249 0.30462202 -0.20264353 -0.31580654 0.22386146 0.11892147
0.075669646 0.1162554 0.00797126 0.16315277 0.04335164 -0.034197453 0.8088786 -1.2304038
0.8971304 -0.17051691 -0.7114269 -0.55703926 0.089632004 -0.34705013 0.8643248 -0.9001065
0.7077686 -1.5080924 -0.01213822 0.43847695 -0.011103857 -0.25673833 -0.148977 -1.1472161
-0.38791347 0.12992637 -0.482734 0.47380313 0.8558994 0.27222055 0.3545627 -1.2237803
1.238114 0.6325479 -1.444213 -1.3461864 0.10202363 -0.09730502 -0.125336 -0.24703556
-0.012722047 -0.24129555 0.26096395 0.26021883 0.28138614 -0.22915922 -1.1035248 0.21695979
0.20912324 -0.81292266 -0.06113368 -0.35180703 0.64323556 -1.5436898 0.8672497 0.76289904
-0.15313628 -0.090623796 0.1501285 -0.043157455 -0.018395957 0.14606582 -0.1445259 0.03338645
0.26338276 -0.029550714 0.93250304 -1.2709632 0.29804325 -0.013790436 -1.6742214 0.066806205
-0.45634514 -0.14855063 0.0106856935 -0.16917883 -0.48897272 -0.7913522 0.55852795 -0.522977
0.5223064 -1.4509922 -0.75615585 0.3879152 -0.4285278 0.12892652 0.33616963 0.35327464
0.112077825 0.0068643373 -1.9004892 0.65278536 0.57840055 -0.7967337 0.19983998 -1.3958308
0.2770176 -0.6579144 -1.0142221 0.5001847 0.8361731 0.6993141 -0.059801795 -1.4438726
0.2655691 -0.24275464 -0.6401344 0.61071146 0.86734825 -1.6185192 0.8199318 0.17429906
1.0172211 -0.07741564 0.30312657 -1.6593862 -0.040941216 0.17921488 -0.080761574 0.15353562
0.25218445 -0.0611568 0.23090471 0.05273336 0.024738275 0.22142152 -1.4179968 0.76079464
0.84729946 0.18905093 -0.30110157 -1.1260061 -0.69552535 1.3615189 0.34423688 -2.2648778
-1.5570519 0.6353563 -0.71613806 0.7884337 -0.46199235 0.054687746 -1.4097887 0.3743015
0.30947688 0.2802592 0.2677674 -0.2127387 0.22419497 -0.26974654 0.18414798 0.03868723
-0.21635145 -0.28036603 0.11216542 -0.17877984 -0.273875 -0.10931305 0.056230202 -0.22665921
-0.26142684 -0.28424156 -0.29863632 0.22407159 0.28014565 -0.079776034 0.35983887 -0.03240922
0.42540464 0.26575136 -1.1896011 0.9325828 -0.6536057 0.024890343 0.7665055 -1.8707491
-0.78640527 -0.7405274 -0.49943832 -1.3687186 0.73276526 -0.6609243 0.32640243 0.4670712
0.9139356 0.02309689 -2.030765 0.49911866 -1.2219921 -0.45494607 0.36820447 0.41434902
-1.2158794 -0.17123045 -0.028866095 0.83112943 -1.0839654 -0.10651264 -1.3515671 0.36944172
0.32772827 -0.29563555 -2.6482253 0.9569462 0.2945843 0.749144 -0.164014 0.08527686
-0.012542604 0.28545997 0.0190883 0.24137615 -0.08802893 0.08496618 0.11886682 -0.09557674
0.28058067 -1.4369704 0.5032011 -0.677473 0.4410911 0.17155752 -1.038929 1.4366183
-1.4464611 0.08712268 0.2215804 0.08893951 -0.25222948 -0.30681705 0.06552624 0.09123718

functional_3_1/sequential_1_1/dense_5_1/BiasAdd/ReadVariableOp:0 f4 [10]
00000000: 081b 143e 8326 a63d 7015 ffbc 650b 633b
00000010: 5397 903d 58d1 483d e593 5f3d 71ec 44be
00000020: 7b75 3ebe be0d 933d
0.14463437 0.08112814 -0.031138152 0.0034644243 0.07060113 0.04902777 0.054584403 -0.1923082
-0.18599503 0.071803555

functional_3_1/sequential_1_1/dense_4_1/Cast/ReadVariableOp:0 f4 [50, 50]
00000000: a181 353e c139 e1bd 4f8a 043c f866 36be
00000010: 2ef1 b5bc 46c6 41be 6368 53bd 1ce8 59be
00000020: 3e03 36bd 6f87 543e 8dfa 34be 1874 963d
00000030: ebaf c7bd 5eea 3a3e 6e9e 3f3d ec01 00bd
00000040: b640 dd3d e212 15be d98a 6a3d 7dae b93d
00000050: 0606 383e b6db eb3d 300b be3d 67e1 073d
00000060: a029 4ebb aeae e4bd 2875 50bd d743 243e
00000070: 8d97 4dbe 5b6e 48be 1cf2 41be c182 763e
00000080: 1049 f13d 8310 d239 7f21 99bc 2b49 02be
00000090: 0c58 42be 01e9 053e facc 863d 73fb 603e
000000a0: 6994 063e 707a bfbd 2e1c 1dbe 6899 e03c
000000b0: dad1 7a3d 4ba2 20be c889 a83d a485 1f3e
000000c0: 4d65 ae3c 30c6 01bc 6dc9 123d 786b 61bd
000000d0: e5c1 61bd 6487 4d3f 8f4d 923f 6014 0d3f
000000e0: bdb3 913d 1ef6 b5be 0709 6fbe dcba 0b3f
000000f0: adbf 2abf 98d9 9e3f 8ea2 8b3f f8a7 3cbd
00000100: 985f b43d adc5 fb3e 43ff 85be d575 68be
00000110: 1dd9 b0bd d127 d73e e904 10bf 5c98 a9bf
00000120: d746 a2bf 75cd 51bd 4207 c8bf e35e 80be
00000130: 261b 44be 5e5a 40bd 2495 10bf bf82 2a3f
00000140: da8f 2d3d f8e3 a23d 7c08 393f 9929 39bf
00000150: 94bd 053f 6acc 44be 27c9 813f a81a f6be
00000160: 708b e7be cbf1 193f 2f25 77bf cf50 023f
00000170: 1efb 843e 0f44 cebe 450e f63e 9100 b53e
00000180: 27e7 48bf 658d 2ebf 2c66 353f 3f9c 87be
00000190: 9eb9 0dbe 60f7 643e 2c71 dcbd bb87 25be
000001a0: 65e5 eb3d e0af 653e 5676 be3c c2a4 84bd
000001b0: 3fb7 ac3d 9704 b03c d0e5 723c 1112 213d
000001c0: 1c9a afbd bd97 18bb e710 1ebd f19e 733e
000001d0: 09ab 913c 1ae7 813d aae4 e7bc 04fb 043e
000001e0: b871 7d3d 618c a63d 083c 72bd 62b1 853d
000001f0: 0227 00be 91ec fabd f5b3 01be f7ba 193e
00000200: 975d 173e b552 143e 0898 13be 3309 afbd
00000210: 8c7f a53d 91cc 083e a059 a53c e76b 7e3c
00000220: bfd4 38be f4ae 393e 59a9 f03c 036f 133e
00000230: 5900 313e 2de9 233d b3cb 9439 c1ed 303e
00000240: c3fa eebd 8ed0 6bbe 5e90 edbd ea25 07be
00000250: 24e6 9f3c 6da9 343e ee9b a6be 2273 4b3c
00000260: 04b7 1c3e 9928 80bf 6557 803e 1724 c33e
00000270: aec9 60be fbb5 213d 71ca c13d c2ba 4bbf
00000280: 0cb9 8e3e 5748 5ebf cb06 063f 9ef9 a7bd
00000290: be05 963d 8639 bcbf 31d2 5dbe d819 93bc
000002a0: afed 90bd 73ca b4bf 0e3c 53bd 6afc 5f3f
000002b0: c6b2 453f bf6b 97bb c641 3d3f e267 d93d
000002c0: d40c 523e 39c0 1d3f 3e11 b8be 4c25 0dbf
000002d0: b544 5d3f 6d66 d4bb 24f4 183f f78d 273f
000002e0: 78a8 5bbf afaa 88be c523 22be a5f7 773f
000002f0: 53b1 1bbe d8e0 3fbd c1ee 533f 52df 13be
00000300: 6f56 3fbf 8df9 4dbc 330f 2abf e7eb 723f
00000310: 5fab 703f 760d 4ebe 7e42 87bf 59f7 573d
00000320: ffa9 643f c04a 2fbe fd23 3fbc 9906 04bf
00000330: 6b1c f83a 49e0 a3bf 7988 dcbd 3851 193f
00000340: 6487 8dbe 277e b03e f8cc 98be 60b9 093e
00000350: 2b87 c33e 0d79 5dbf 30b5 373e a3f2 793e
00000360: 8925 993f dc72 10be 5e19 69bd a57d f43e
00000370: eac3 20bf 883a cb3f 79b0 903f a7a4 56be
00000380: ef86 10bf 4554 1d3e 40f2 a3bc 7010 bc3e
00000390: 4882 073f 674f 43bf 6a7f 01be fcd1 8fbe
000003a0: ac75 8fbe fed3 a93e 78c9 4c3f 0479 1dbe
000003b0: 4a37 0bbe 17f6 8bbf ed30 343f 44e3 723f
000003c0: c1ef 613e 5145 983f d391 cf3e 2f54 0bbd
000003d0: 9c08 3f3f 84f3 0ebf c8d1 603c e0f3 113f
000003e0: 713d 963e 012c e1be 4ec5 403f 6f3f d43d
000003f0: cc53 563e 5d10 c83e 8254 c13e 9e2a 7b3e
0.17725231 -0.10997344 0.008089616 -0.17812717 -0.02220973 -0.18923292 -0.051613223 -0.21279949
-0.044436686 0.20754789 -0.17673703 0.07346362 -0.097503506 0.18253466 0.04678195 -0.031251833
0.10803358 -0.14557984 0.05726132 0.09066484 0.17971048 0.11516516 0.092794776 0.033173945
-0.0031457916 -0.1116613 -0.05089298 0.16041504 -0.20077343 -0.19573347 -0.18940014 0.24073316
0.11781514 0.00040066623 -0.01869273 -0.12723224 -0.189789 0.13077165 0.06582065 0.2197092
0.13142551 -0.09349525 -0.15342781 0.0274169 0.061235286 -0.1568691 0.08229405 0.15578324
0.021288538 -0.007920787 0.035836626 -0.05503413 -0.055116553 0.80284715 1.1429919 0.55109215
0.071143605 -0.35539335 -0.23343287 0.54582 -0.66698724 1.2410154 1.0908983 -0.046058625
0.088072956 0.49174252 -0.26171312 -0.227012 -0.08635161 0.42022565 -0.5625749 -1.3249621
-1.2677869 -0.05122133 -1.5627215 -0.25072393 -0.19150981 -0.04696118 -0.5647757 0.6660575
0.042373516 0.07953638 0.7227857 -0.723291 0.522424 -0.19218603 1.0139512 -0.48067212
-0.4522357 0.6013457 -0.9654111 0.50904554 0.25972837 -0.402863 0.48057762 0.35351995
-0.7847771 -0.681845 0.70859027 -0.26486394 -0.13840339 0.22359991 -0.10763773 -0.16165058
0.11518363 0.22430372 0.023249786 -0.064767376 0.08433389 0.021486564 0.014825299 0.03932387
-0.08574316 -0.0023283802 -0.038590338 0.237911 0.017781751 0.06342907 -0.028307278 0.1298638
0.06187603 0.08132244 -0.05913928 0.06527974 -0.1251488 -0.12252153 -0.12666304 0.15012728
0.14781795 0.14484675 -0.14413464 -0.085466765 0.08080968 0.13359286 0.020184338 0.015528656
-0.18049906 0.18133146 0.029377626 0.14397816 0.17285289 0.040017296 0.00028380528 0.17278196
-0.11668923 -0.23028776 -0.115998015 -0.13198057 0.01951892 0.17642756 -0.3254084 0.0124175865
0.1530419 -1.001239 0.25066677 0.38113472 -0.21951935 0.03948019 0.09462441 -0.79581845
0.27875555 -0.8682913 0.52354115 -0.082019076 0.07325314 -1.4705055 -0.21662213 -0.01795666
-0.070765845 -1.4124283 -0.051570944 0.8749453 0.7722591 -0.0046209986 0.7392849 0.10615517
0.20512706 0.61621433 -0.35950655 -0.55135036 0.86432964 -0.0064819367 0.5974753 0.65450996
-0.8580394 -0.2669272 -0.15833957 0.9686225 -0.15204363 -0.046845287 0.82786185 -0.14440659
-0.7474126 -0.012571705 -0.6642944 0.9489121 0.9401149 -0.20122322 -1.0567167 0.052726123
0.89321893 -0.17118359 -0.011666295 -0.5157257 0.0018929368 -1.2802821 -0.107682176 0.59889555
-0.27642357 0.34471247 -0.2984388 0.13449621 0.38189062 -0.86512834 0.17940211 0.24408965
1.196458 -0.14106315 -0.056908958 0.4775211 -0.6279894 1.5877237 1.1303855 -0.20961247
-0.5645589 0.15364178 -0.020012975 0.3673129 0.5293317 -0.76293033 -0.12646261 -0.28089893
-0.28019464 0.3316955 0.79994917 -0.15378195 -0.1359531 -1.0934476 0.70387155 0.9487803
0.22064115 1.1896154 0.40540943 -0.03401583 0.7462251 -0.55840325 0.013721891 0.5701275
0.2934375 -0.43978885 0.75301063 0.103636615 0.20930403 0.39074984 0.37759787 0.24527976

functional_3_1/sequential_1_1/dense_4_1/BiasAdd/ReadVariableOp:0 f4 [50]
00000000: 4875 883c b0b6 c4bb 547a 73bc a2e2 653d
00000010: 18b0 173e dcd5 483e 40c1 4bbd a5f8 043e
00000020: d3c4 8dbd 7914 a33d 10fa 103e 2445 fb3d
00000030: 92f8 013e 9271 1c3e feec 1dbc 6367 28bd
00000040: 6f72 dd3d 0000 0000 e448 c4bb 2e9e 88bd
00000050: 648d a43c 5b16 9f3d 9445 a23d 9061 e4bc
00000060: 5f19 353e ff09 6c3a dd58 16bd e340 983d
00000070: cd0f cb3c 838c 473e 8478 063e 3550 1b3c
00000080: 89fe e03c 696c 0a3e 39e4 e23d 7ab0 27bd
00000090: 4b07 f13c 60c1 9f3d ddd4 d13d c572 893e
000000a0: a3ca 933c 015b 893c 87da 2d3e 734c 2e3e
000000b0: faed d9bc 07f8 783e 3c03 b13d 11d7 923d
000000c0: ff5c 883d 7906 4c3e
0.016657487 -0.0060032234 -0.014860708 0.056124337 0.14813268 0.19612831 -0.049744844 0.12985475
-0.06922307 0.07962889 0.14157891 0.12269047 0.12692478 0.15277699 -0.009639023 -0.041114222
0.10812842 0.0 -0.0059901346 -0.066707954 0.020086952 0.07767936 0.07923427 -0.027878553
0.1768546 0.0009004175 -0.03670584 0.07434251 0.024787808 0.19487195 0.1313191 0.009479572
0.027465122 0.13517918 0.11078686 -0.040939786 0.029422423 0.07800555 0.102456786 0.26845375
0.01804096 0.016767027 0.16977893 0.1702135 -0.026602734 0.24313365 0.08643195 0.07169927
0.066583626 0.19924344

functional_3_1/sequential_1_1/dense_3_1/Cast/ReadVariableOp:0 f4 [784, 50]
00000000: 68c1 7abc 700b 4ebc 1879 e53c 18ea 56bd
00000010: c47b 72bd 6417 e73c 2626 2d3d 77b7 8d3d
00000020: ce2e 59bd 961d 6a3d a6f8 583d 7b1a 57bd
00000030: 3a23 54bd 1bd6 83bd 1096 50bc c4b7 67bd
00000040: 6670 563d 0068 6739 b355 8ebd 22f4 323d
00000050: 204b a0bc 4862 73bd 0071 473a c44e 68bd
00000060: 7099 9fbb c0c7 26bb 9044 b73b 583b 35bc
00000070: 4cd9 e93c 03c8 5ebd f244 723d e51f 883d
00000080: f079 02bc 0a57 533d 35a1 07bd 223a 5d3d
00000090: c842 2cbc f3dd 41bd a853 c1bc e091 583c
000000a0: bea4 21bd 8843 3c3c 123e 94bd c9e3 943d
000000b0: 60e2 dcbb a180 9d3d eee6 e8bc 5423 d73c
000000c0: 3070 44bc 7d1c a5bd a051 11bb 2c7e f83c
000000d0: 6ace 79bd c8d9 96bc 4603 82bd 0e8a 593d
000000e0: 64db 8cbc b997 2fbd 84b1 be3c 14e9 82bd
000000f0: 342d 163d dae0 77bd 9fc0 8c3d 9013 58bc
00000100: 6817 833c b2b6 6dbd 30ff 0dbc a956 8f3d
00000110: a0ba 6a3c c602 6c3d efdc 83bd 5a92 4d3d
00000120: 90e4 d23b 380c 56bc eaf7 90bd fcfe 2ebd
00000130: 8c45 b1bc e15d 9dbd c443 5bbd e9d7 1dbd
00000140: 9f78 acbd 8662 703d 9e8e 32bd 818e 55bd
00000150: fc22 4ebd 3976 9b3d 2210 243d e7b5 9ebd
00000160: f9b6 843d 0058 80ba 4034 053d a0e3 163d
00000170: 8ecd 443d 884e b63c 6092 9cbb aa94 7d3d
00000180: 4dd7 07bd 3096 9ebc bcd6 adbc 7be5 aa3d
00000190: 3850 6abd b665 8cbd ea2a 90bd ce89 4c3d
000001a0: 88e2 b23c 6ede 4c3d e424 72bd 8212 733d
000001b0: d3c9 aa3d c89d 7f3c 5249 4d3d f0e6 7cbd
000001c0: 0011 58ba aac3 97bd d4ae a8bc 3010 50bd
000001d0: 96e4 783d cf57 983d 486b b9bc f0b4 b0bb
000001e0: 89fa 9f3d 5ac2 593d be70 4e3d 0985 abbd
000001f0: bd12 3bbd 0468 b4bc d084 b9bc 9710 853d
00000200: 6fad a63d 5cca e53c ed30 a03d 1c45 ec3c
00000210: f315 41bd 4222 5a3d e049 3a3b bfd0 ab3d
00000220: 0449 cb3c 843d d8bc 7c21 91bd cc60 92bd
00000230: d0ab 73bc 2f86 2ebd a00e c0bc 52d4 e5bc
00000240: b1f9 913d 5445 03bd 30fd f83c 6708 8b3d
00000250: f62b cbbc 00a5 c13a 2018 923c 5421 d23c
00000260: 51c5 823d 7f5d 14bd 19e5 883d 726e 643d
00000270: 0e75 023d a309 aa3d 5449 6bbd 044c 37bd
00000280: d883 4fbc d4a7 c4bc ae2e 073d d47e 81bc
00000290: 1323 a43d 1b90 a33d 580a 40bd d401 ee3c
000002a0: f4a1 c33c 0854 34bc c99e 4fbd 6472 ce3c
000002b0: 80be 8abc 7021 37bc 8810 3dbc e883 05bc
000002c0: f5e2 aa3d f031 c8bb 06b5 733d 24f5 b2bc
000002d0: dc21 90bd e83a 45bc 0ebc 51bd 382c 88bc
000002e0: 9abb 4f3d a275 393d e044 033b 1977 903d
000002f0: 8064 2bba 248d 0e3d 48a4 a4bc 30cb 593c
00000300: 71e5 8bbd e277 113d 509e 00bd 9ca6 98bd
00000310: 4ad0 2c3d 68db 0abd f614 5fbd 6271 253d
00000320: 34e4 f83c d38f 1abd 5cbc 65bd 08dd 96bd
00000330: 3a9f b7bc 51dd 813d 8e29 303d eeb5 123d
00000340: 61fe 07bd 20c0 4fbb 0839 c03c 1279 683d
00000350: b844 203d 833a 943d 4cf7 fd3c 7622 063d
00000360: b3e7 69bd 90d9 d0bb 3d1c a83d 3b2b 943d
00000370: f9a4 1cbd 0522 903d aaa4 e7bc 4594 82bd
00000380: d241 053d b7c6 2bbd 40a3 fcbc c675 8cbd
00000390: 9130 943d 1435 9bbc 5c86 99bc a0ce ebbb
000003a0: aac4 4b3d 971b 9a3d c096 733c 9d61 8c3d
000003b0: be5b 483d c31a 953d 58d1 4c3c 2087 023d
000003c0: 0001 d439 92c9 573d 3fd8 933d 623f 213d
000003d0: 38f4 3c3c 2c4b 5dbd be8c 193d 2c07 c2bc
000003e0: d0a1 25bd d28a 763d 7b4e 38bd 1e07 1fbd
000003f0: f563 3cbd 8c9c d1bc 6099 8dbb 20e2 7abc
-0.015304901 -0.012575969 0.028011844 -0.052469343 -0.059200063 0.028209396 0.04227271 0.06919759
-0.053023152 0.05715712 0.052971505 -0.052515488 -0.051791407 -0.06437322 -0.01273109 -0.056571737
0.052353285 0.0002206862 -0.069499396 0.043689854 -0.019567072 -0.0594199 0.0007608086 -0.05671574
-0.004870586 -0.002544865 0.00559289 -0.011061512 0.028545998 -0.054389965 0.059147783 0.066467084
-0.0079636425 0.05159668 -0.033112723 0.054010518 -0.010513969 -0.047330808 -0.02359946 0.013218373
-0.03946375 0.01149071 -0.072384015 0.07270009 -0.006740853 0.0769055 -0.028430428 0.026261963
-0.011989638 -0.08062074 -0.0022173896 0.030333601 -0.060987867 -0.018414393 -0.063482806 0.053110175
-0.017194457 -0.042869303 0.023278005 -0.063921124 0.036664203 -0.06051717 0.06872677 -0.013188258
0.016002372 -0.05803556 -0.0086667985 0.06998951 0.014326721 0.057619832 -0.06438624 0.0501884
0.006435938 -0.013064437 -0.07078536 -0.04272364 -0.021639608 -0.076839216 -0.053531423 -0.038535986
-0.08421444 0.05868771 -0.04359304 -0.052137855 -0.050326332 0.075909086 0.040054448 -0.07749539
0.06480212 -0.0009791851 0.032520533 0.036838174 0.048047595 0.022254243 -0.0047781914 0.061909355
-0.03316431 -0.019358724 -0.021220557 0.08344551 -0.05720541 -0.06855337 -0.07039435 0.04993611
0.021836534 0.050016813 -0.059117213 0.059343822 0.08339276 0.015601583 0.05011875 -0.061743677
-0.00082422793 -0.07410367 -0.020591177 -0.050796688 0.06076487 0.07438623 -0.022634163 -0.005392663
0.07811458 0.053163864 0.050400488 -0.08374984 -0.045672167 -0.022022255 -0.022646338 0.06497305
0.081385486 0.028050594 0.07821832 0.028841548 -0.047140073 0.053255327 0.002842538 0.083894245
0.02481509 -0.02639652 -0.07086465 -0.07147369 -0.014872506 -0.042608436 -0.023444474 -0.028055344
0.07127703 -0.03204854 0.030394167 0.06788712 -0.024801236 0.0014773905 0.01783377 0.025650658
0.06385291 -0.036221977 0.06684322 0.05576939 0.031849913 0.08302619 -0.057442978 -0.04475023
-0.012665711 -0.024005808 0.0330035 -0.015807547 0.080145024 0.0798647 -0.046884865 0.029053606
0.023880936 -0.011006363 -0.05068854 0.02520103 -0.01693654 -0.011177406 -0.011539586 -0.008149125
0.0834407 -0.0061094686 0.05949881 -0.021845408 -0.07037708 -0.01203797 -0.051204734 -0.016622648
0.05071602 0.0452782 0.0020030066 0.07053966 -0.0006538108 0.03480257 -0.020097867 0.013293073
-0.06830872 0.03551472 -0.03140098 -0.07453653 0.042190827 -0.03390065 -0.05446335 0.040391333
0.030382253 -0.037734818 -0.056087837 -0.07366377 -0.022414792 0.06341041 0.04300838 0.035818033
-0.03320158 -0.0031700209 0.023464695 0.056756087 0.039128035 0.07237723 0.03100171 0.03274771
-0.05710573 -0.0063735917 0.08208511 0.07234808 -0.038243268 0.07037739 -0.02827676 -0.063759364
0.032533474 -0.041937556 -0.030839562 -0.06858401 0.07235826 -0.018946208 -0.018740825 -0.0071962625
0.0497481 0.075247936 0.014867485 0.06854556 0.048915617 0.07280495 0.012501083 0.031867146
0.00040436536 0.052682467 0.0721898 0.039367087 0.011532836 -0.054026768 0.037487738 -0.02368506
-0.04043752 0.060190983 -0.04499672 -0.038825147 -0.045993764 -0.025587343 -0.0043212622 -0.015312701

functional_3_1/sequential_1_1/dense_3_1/BiasAdd/ReadVariableOp:0 f4 [50]
00000000: 3a32 2fbc 57d2 893c 0acf cdbb 2a77 c43d
00000010: d698 3a3d a12f 3439 c35c 2d3e 1a4f 03bc
00000020: 0f4f b8bb d4eb 533d 076b f5bb df3f 1abc
00000030: ad1a fa3b 2e3d 1a3d 7fd6 f53d ccca b9bb
00000040: 6197 b23d ae64 bd3d c58c 0d3d f454 623d
00000050: 7f23 8f3d 420d b23d 2113 ce3c 47b7 c4bb
00000060: 8b7c d3bb dc39 423d 7068 c4bb e518 9b3d
00000070: 1c79 843d 2350 023e 773c 443d 22a3 cd3d
00000080: 8ca9 c33c 6fb6 a0bb e8de 3c3d 9a4e 303d
00000090: a8e9 d63d 3d52 cc3d e2c5 3fbc be9e 26bc
000000a0: cb8e 96bb 07f3 583e 881e 0e3e 7507 46bc
000000b0: 87e2 7d3c 416a c4bb 6a53 be3d 7cea 9b3d
000000c0: 5daf c7bb a52f 9dbb
-0.010693127 0.01682393 -0.0062807845 0.09593041 0.045555912 0.00017183881 0.16929917 -0.008014465
-0.005624659 0.051738575 -0.0074895653 -0.009414642 0.0076325745 0.037656 0.120038025 -0.005669927
0.087202795 0.09247719 0.034558076 0.0552568 0.06989192 0.08693935 0.025155606 -0.0060032937
-0.0064540557 0.04741846 -0.005993895 0.07573108 0.06468412 0.12725882 0.047909226 0.10040881
0.023884557 -0.0049045603 0.046111017 0.04304371 0.10493785 0.09976623 -0.011704894 -0.010169683
-0.004594659 0.21186458 0.13878834 -0.012086739 0.015495903 -0.0059941118 0.09293254 0.07613084
-0.006093903 -0.0047969394
